机器学习/机器学习第15组王振宽/cifar_net.pth (torch, 250951 bytes, 10 tensors)

conv1.weight f4 [6, 3, 5, 5]
000000 cf f0 04 3e 34 71 82 bc 63 cd 84 3a 1b 59 ad 3c
       0.12982486 -0.01592312 0.0010132011 0.021160653
000010 e5 90 8e bc 86 5e 24 3e 5a 67 11 3d b8 a2 db 3d
       -0.017403075 0.16051683 0.035498954 0.107243955
000020 96 19 86 3d 4b 84 61 3d c9 79 a7 3d 14 db 27 bc
       0.06547849 0.055057805 0.081775256 -0.010245103
000030 04 b7 b1 bc 46 65 9c 3d 89 2b bf 3c a6 2b ce 3d
       -0.021693714 0.07636504 0.023336189 0.10066919
000040 b1 8b d8 3d ad ed f0 3d 10 fe 37 3d 5b 74 b8 3d
       0.10573519 0.11764083 0.044920027 0.09006568
000050 5d cb c6 3c 88 1b d7 bc 37 23 9a 3c b5 54 14 3e
       0.024266893 -0.026258245 0.01881562 0.14485438
000060 66 c0 6c 3d 85 8a ba be 57 2f 24 be 23 d8 ff bc
       0.057800673 -0.36433807 -0.16033684 -0.031230992
000070 de a6 86 3d b5 70 a6 3d 7d 4e b5 be a2 09 72 be
       0.06574796 0.08126966 -0.35411444 -0.23636487
000080 23 4d c3 bd e8 d4 59 3e f3 fe 3e 3e 6d 97 ad be
       -0.09536197 0.21272624 0.18651943 -0.3390459
000090 9c 83 98 be a3 99 6b bd 6c 07 0e 3e 80 1f 47 3d
       -0.2978791 -0.057519566 0.13870019 0.048614025
0000a0 04 24 43 be cc 46 58 be 5a bc 17 be c3 9a b4 3d
       -0.19056708 -0.21120757 -0.14817944 0.08818581
0000b0 19 c2 e3 3d c3 97 e7 bd 67 3c dc bd 9f 43 cf bd
       0.111210056 -0.11308243 -0.10753708 -0.101203196
0000c0 f4 82 be bd 8c ea 60 bd a2 37 b3 bd 32 26 9d bd
       -0.09302321 -0.05491118 -0.087508455 -0.07673301
0000d0 04 c1 f3 3d e2 3a af 3e 92 0f 27 3e b4 63 92 be
       0.11902049 0.34224612 0.16314533 -0.28591692
0000e0 f0 43 17 be 3b 26 af 3e f0 8d da 3e 7f 6f 97 3e
       -0.1477201 0.34208855 0.42686415 0.29577252
0000f0 b8 b3 e4 bd 30 9a 3e 3c 9f 99 90 3e ed 66 84 3e
       -0.11167091 0.011633441 0.28242204 0.25859776
000100 7a e3 4f 3e b0 b3 62 bd 17 4e 85 bc 30 12 a1 3d
       0.20301619 -0.055347145 -0.016272588 0.07864797
000110 73 57 1d 3e ea 16 92 bd 63 c6 83 3d ce e3 d3 3d
       0.1536539 -0.07133277 0.06434324 0.10346185
000120 3f 9e 1a 3d 73 0a 8e bc b3 4e 96 bd 06 c7 ef bc
       0.03774857 -0.017338967 -0.073392294 -0.029269706
000130 21 eb 90 3d de 88 99 3d a7 95 ed 3c b6 41 07 be
       0.07076097 0.074968085 0.029002024 -0.1320866
000140 0f 45 1d 3e 66 4a 69 3e 1b 8e 93 3e b2 47 73 3e
       0.15358375 0.22782287 0.28819355 0.23757818
000150 03 09 23 3d 3d 87 ab 3e 0a 6f db 3e eb b8 18 3f
       0.039803516 0.33501616 0.42858154 0.5965716
000160 c5 25 cd 3e 7e 9c e4 3d 7f 62 60 3e f2 a9 ba 3e
       0.40067878 0.11162661 0.21912573 0.36457783
000170 50 90 d7 3e d9 6e 7c 3e 28 4b 0b 3e 37 79 21 bd
       0.4210229 0.2465166 0.13602889 -0.03942224
000180 57 86 3f bd 35 ff f8 3d ea 93 03 3c 86 5c 28 be
       -0.046758976 0.12158052 0.008030871 -0.16441545
000190 44 16 9b 3c cf 48 ad bd ce 74 ca bd d2 81 73 be
       0.018931516 -0.08461153 -0.0988556 -0.23779991
0001a0 20 62 e0 bd fa 44 5c be 8b f4 87 be cd d8 a0 be
       -0.10956216 -0.21510687 -0.2655376 -0.31415406
0001b0 b2 0f ab be 06 c9 8a be 77 04 a7 be ca 7f aa be
       -0.33410412 -0.27106494 -0.32620594 -0.3330062
0001c0 55 2e fd be 1e 87 ed be 53 0d 90 be f7 63 5f be
       -0.4944941 -0.4639215 -0.28135166 -0.21815477
0001d0 ce 36 a8 be 4f e3 bc be 32 5f e0 be 5b 41 af be
       -0.32854313 -0.36892173 -0.43822628 -0.3422955
0001e0 07 22 1d be 90 22 fd bd b4 46 0e be 3b f0 60 be
       -0.15345012 -0.12360108 -0.13894159 -0.2196664
0001f0 63 4f 0d be ce 0f 38 3e cb 4f 10 3e c8 d1 d5 3d
       -0.13799815 0.17974779 0.14092939 0.10440403
000200 e5 45 4b 3e e7 0b 74 3e 65 e6 33 3e 94 4e b7 3d
       0.19850881 0.23832665 0.17568357 0.089505345
000210 09 e1 87 bd 65 9b 7a bd db 71 43 3e 96 79 e2 3d
       -0.06634719 -0.061183352 0.19086401 0.11058347
000220 84 2e eb bd 55 ab 68 be 77 35 14 be f1 94 d0 3d
       -0.114834815 -0.22721608 -0.1447352 0.10184658
000230 1b a6 b8 3d 19 87 de bd 61 0e 22 be c4 9e 17 3d
       0.09016057 -0.108656116 -0.15825798 0.037016645
000240 45 b4 e1 3d 46 24 85 3e 5e 66 46 3e 92 3a 55 3d
       0.11020712 0.26004237 0.19374987 0.05205781
000250 d4 14 3f 3e cc 3b 77 3e a0 f9 23 3e 23 9e 31 3e
       0.18660289 0.24143904 0.16013193 0.1734548
000260 0a 8a fe bd d1 7a 43 3e 67 ae 96 3e ff 11 13 3d
       -0.124286726 0.1908982 0.29429933 0.035905834
000270 33 67 0e 3f ef e6 31 3f 6c f0 2d 3f 12 97 e4 3d
       0.5562622 0.69493 0.6794498 0.11161627
000280 f6 5f ed bc 68 ec 81 bd 3e ca b0 be 36 c8 8d be
       -0.028976422 -0.06343919 -0.345293 -0.2769181
000290 7c 6f 6e be 5b e4 a7 3d e3 e6 06 bf 56 62 31 bf
       -0.23284715 0.08197852 -0.52696055 -0.69290674
0002a0 cb 81 9f be c0 a1 94 bd 68 c9 b6 3d 63 13 54 3c
       -0.31153712 -0.07257414 0.08925134 0.012944075
0002b0 02 34 8d 3c 6c b4 9c bd 1a 5c b4 3d 06 32 c5 3d
       0.017236713 -0.076516 0.088066295 0.09628682
0002c0 d0 e9 38 3e 19 82 05 be 4f 8a 9b bd cc fc c1 bb
       0.18057942 -0.1303791 -0.0759474 -0.0059200283
0002d0 4c 35 03 bd 3c 57 24 3f 83 0e 32 3f 19 7f 33 3f
       -0.03203325 0.6419561 0.69553393 0.7011581
0002e0 d2 20 9d bd cb e7 6a ba 26 4d cd bc 1f 9b dd be
       -0.076722756 -0.00089609314 -0.025061201 -0.4328241
0002f0 e9 e7 f0 bd 35 9f 19 be 4a 41 84 bd 94 b8 02 bf
       -0.11762983 -0.15002139 -0.064577654 -0.51062894
000300 29 12 21 bf 0b 39 e6 be 2f 6f 86 bc fd 41 46 be
       -0.62918335 -0.44965395 -0.016410438 -0.1936111
000310 a0 ca f2 bc 49 e6 12 be 80 d2 37 be f5 c3 9f bc
       -0.029637635 -0.1434566 -0.17951393 -0.01950262
000320 ca cb 58 be 4b c8 5c bd 8c 38 f2 be 4d 72 97 be
       -0.2117149 -0.05390195 -0.47308767 -0.29579392
000330 b5 18 30 be 92 0e e6 bd 5b 9b ed 3e 55 26 0f 3f
       -0.17196925 -0.11233248 0.4640759 0.55917865
000340 b4 e9 03 3f a4 4b d0 bd d4 5d 07 be 33 74 57 3c
       0.5152848 -0.10170677 -0.13219386 0.013150263
000350 f4 8c 37 bd 79 3b 5c bd d5 d0 65 bc d9 f1 16 3e
       -0.044812158 -0.053767655 -0.01402684 0.14740695
000360 9d 95 80 be 02 67 be be ef d6 77 3d 76 44 3b 3e
       -0.25114146 -0.37187964 0.06050771 0.18287835
000370 aa b8 d9 bb ec 07 ce 3e 55 36 a6 3e c9 64 42 3e
       -0.006644328 0.4024042 0.32463327 0.18983759
000380 b8 c7 09 3e 61 53 f9 3d 52 4a b8 bc d9 59 40 be
       0.13455093 0.121741064 -0.022496376 -0.18784274
000390 53 41 4c bd 82 08 84 3e bc d4 26 bd e2 b7 8a be
       -0.049866986 0.2578774 -0.040730223 -0.27093416
0003a0 33 ab 4b be 13 15 ae bd f5 55 f9 3d 7f b4 b5 bd
       -0.19889526 -0.08500113 0.12174598 -0.088723175
0003b0 c4 4e 90 be 2c 0d a7 be 83 0b 5c be 21 e0 e1 bd
       -0.28185093 -0.32627237 -0.21488766 -0.11029077
0003c0 d3 45 f7 bd d8 b5 85 be a7 7a bb be 70 fa ac be
       -0.12073865 -0.26115298 -0.36617014 -0.3378482
0003d0 9c a6 11 be d5 8d b5 bd 35 38 5a be b2 22 78 be
       -0.14223713 -0.08864943 -0.21310504 -0.24231985
0003e0 0e 7a 7a bd c6 fe ea 3d e6 5d 06 be 5f 4c 20 be
       -0.061151557 0.114743754 -0.13121757 -0.15654133
0003f0 f1 c6 66 bc 0c 8c 01 bc 17 39 5d be ea db ca bd
       -0.014085517 -0.007906925 -0.2160381 -0.099052265

conv1.bias f4 [6]
000000 88 a1 a7 3e e1 70 0e bc c3 27 de be 3a f9 42 3f
       0.32740426 -0.008693905 -0.4338971 0.7616154
000010 71 17 91 bd be 42 29 3f
       -0.07084549 0.66117465

conv2.weight f4 [16, 6, 5, 5]
000000 7e b0 04 3e b3 59 34 3e 0a 4c 96 3d 65 b5 73 3c
       0.12957951 0.17612343 0.07338722 0.014874791
000010 2b 80 80 3d be 35 43 3e 2e 09 9c 3d 78 32 2b bc
       0.06274446 0.1906347 0.076189384 -0.010449044
000020 d6 a3 8f bd cb 5a 29 3d 1a 8e 3d 3e e5 c9 76 3d
       -0.07013671 0.041346353 0.18511239 0.060251135
000030 a5 78 d4 bb e8 82 74 bd b6 57 03 be 6b 67 74 3d
       -0.0064841085 -0.059695154 -0.12826428 0.05966894
000040 3f 8f d3 bc cf c8 5d bc f9 8f 55 bc 34 c6 9c bd
       -0.025825141 -0.013536646 -0.013034814 -0.07654992
000050 40 78 24 bd 45 da a4 bb dc a2 a0 bd 5e 4e ab bd
       -0.04015374 -0.0050309026 -0.07843563 -0.08364557
000060 78 fd 2e be 3e c9 97 3d 51 bc 18 3e d3 6e 3c 3b
       -0.17088878 0.07411431 0.14915587 0.002875258
000070 5b a6 9d bd 1b f0 a2 bc c7 0f 48 bc f1 77 23 3d
       -0.076977454 -0.019889882 -0.012210793 0.039909307
000080 f4 13 29 3d 29 8a 8b bd 30 38 bb bd fe c6 f5 bc
       0.041278794 -0.06813461 -0.09141576 -0.030002113
000090 b7 04 cf ba 0a 20 2a bd 7a 1d ad bd b1 15 73 bd
       -0.0015794252 -0.04153446 -0.08452888 -0.05934686
0000a0 21 5c c0 3c 82 de 74 3d 0e 01 c0 bc f2 c5 96 bd
       0.02348143 0.059782512 -0.023438003 -0.07361974
0000b0 79 aa 14 bd 46 f5 21 3e d4 27 90 3d 05 4f d4 bc
       -0.036295388 0.1581622 0.070388466 -0.025916586
0000c0 34 5e c7 bc 00 21 f0 3d 90 90 49 3e 87 cd c4 3d
       -0.024336912 0.11725044 0.19684052 0.09609514
0000d0 54 e7 d1 bc 2d 38 2e 3b e7 3f bd bd 51 1c 64 3d
       -0.025623001 0.0026583776 -0.09240704 0.055691067
0000e0 78 33 77 3d 5b 28 64 bd 4c b0 b9 bc 06 fc 6d bd
       0.06035182 -0.05570255 -0.022667073 -0.058101676
0000f0 1b 6e a8 bd f0 5a c8 3c 3a 7e b1 bd 07 7d e4 bd
       -0.08224126 0.024457425 -0.08666654 -0.111566596
000100 44 40 c3 bd 75 78 b2 bd 0f c5 e0 bd 10 68 c9 bd
       -0.09533742 -0.087143816 -0.10975086 -0.098343015
000110 e2 a5 95 bd e6 b5 2b be 9e 32 2b bd aa d5 90 bc
       -0.0730703 -0.16768607 -0.04179632 -0.017680008
000120 6f 7c 7f bc 95 15 83 bd 15 01 99 bd 3d 3a cb 3e
       -0.015593632 -0.06400601 -0.074709095 0.3969287
000130 5b fd 92 3e c0 fb 47 bd b5 c0 96 be 79 2b 6e be
       0.2870892 -0.048824072 -0.294439 -0.23258771
000140 67 5c 00 3f 4e e3 c6 3e d3 eb c6 bd 02 4c cd be
       0.50140995 0.38845295 -0.09712949 -0.40097052
000150 ca 68 fe be 02 03 f9 3e 0e 1b 97 3e 41 fe 05 bd
       -0.49689323 0.48635107 0.2951283 -0.03271318
000160 c6 31 b4 be 5d fc fd be 9b 9a 93 3e 4e 83 9c 3e
       -0.35194224 -0.496066 0.28828892 0.30568928
000170 3f 36 4c 3d 8a 61 9f be 69 52 b0 be 51 1c 78 3e
       0.04985642 -0.31129104 -0.34437874 0.24229552
000180 ca 74 5a 3e a0 95 81 bd 84 8c 2c be 80 0f c1 be
       0.21333614 -0.06327367 -0.16850477 -0.37707138
000190 93 09 d8 3d 32 1a 17 3d 79 35 02 be d9 82 95 bd
       0.10548701 0.036890216 -0.1271571 -0.07300348
0001a0 0c 3a ea 3d cd 26 32 3c ff 0b 3a 3d ed 1d bd 3c
       0.11436853 0.010873509 0.045421597 0.023085559
0001b0 c2 7d c2 bd f3 68 40 bb e0 db bb 3c 21 1b d4 3c
       -0.09496643 -0.002935943 0.022931993 0.025891842
0001c0 5a be 1c 3d a6 47 9f 3d 2d 9b c5 bc 8e 13 1e 3d
       0.03826747 0.07777338 -0.024121845 0.038592868
0001d0 c0 af 46 3c 95 dc 87 ba 4c d5 3c 3d 7a c7 a7 3c
       0.012126863 -0.0010365421 0.046101853 0.02048086
0001e0 ff f7 17 3c a8 92 20 3d d6 55 41 3d fc 31 26 3c
       0.0092754355 0.039202362 0.047201 0.010143753
0001f0 5a 53 8c 3d 01 33 16 3e 71 20 73 bd e7 9c cd bb
       0.068518355 0.14667894 -0.05935711 -0.0062748077
000200 05 b1 25 bd 32 be b8 3c 5b b5 8b 3d dd c0 31 3e
       -0.040452022 0.02255163 0.068217 0.17358728
000210 10 91 a5 3b 43 40 a8 3d b6 e2 65 bd 23 1e 79 bd
       0.005052693 0.08215382 -0.05612441 -0.060819756
000220 d4 a8 b4 3b be dc 89 3d be 45 99 3c d9 c0 b8 bd
       0.00551329 0.06731556 0.018710013 -0.09021158
000230 5e d3 22 bd 6c 23 8d bd c7 f9 b0 3c 43 bc 78 3d
       -0.039752357 -0.06891522 0.021603478 0.060726415
000240 de 3d d8 bd 4e 31 a8 3c 2c 45 90 bd 96 5b 02 bd
       -0.10558675 0.020531323 -0.070444435 -0.031825624
000250 dc a7 a2 bd 19 9a 08 be eb 75 91 bc 88 d2 5c 3d
       -0.07942173 -0.13340034 -0.017756423 0.053911716
000260 64 90 74 3d f5 b3 2f bd bf a7 04 bd b1 a0 ec 3c
       0.059708014 -0.04289623 -0.032386538 0.028885217
000270 fb 02 64 3d 70 95 78 3d 39 2b 05 3d 59 07 0c 3e
       0.055666905 0.06068939 0.032511923 0.13674678
000280 b3 a4 ca bb 59 62 11 3d 21 81 fa bc 9e 60 30 bd
       -0.0061841845 0.035494182 -0.030579152 -0.04306089
000290 00 91 a3 3d 9d 30 b0 3c 40 ee 96 3d 2a 34 05 3e
       0.07986641 0.021507556 0.07369661 0.1300818
0002a0 f4 a5 6f 3c a9 89 01 3d cf 0b 12 bc 3b 43 fe 3d
       0.014626969 0.031625424 -0.008913948 0.12415167
0002b0 1f a9 0f 3e 4f ba 17 3e ba 5f 85 3d 70 35 5b bd
       0.14029358 0.14817165 0.06512399 -0.05351776
0002c0 bb 89 2a bd 1a f8 64 be d8 56 9a be e4 a4 5d be
       -0.041635256 -0.22360268 -0.30144382 -0.21644932
0002d0 9f b8 a5 bd a9 30 d8 3c 44 d4 26 3d 08 01 01 be
       -0.08091854 0.02639039 0.040729776 -0.1259805
0002e0 b1 e8 89 bd 7c 47 63 bd 0d 03 b1 3c fe ba 08 3e
       -0.067338355 -0.055488095 0.0216079 0.13352582
0002f0 b1 32 0a 3e f2 a9 23 3e 2b 34 13 3b b1 3a 30 3d
       0.134959 0.15982798 0.0022461514 0.043024722
000300 58 80 92 3d d3 8f fd 3d 74 d7 8c 3d c1 4a 69 3c
       0.07153386 0.12380948 0.06877032 0.014239014
000310 ec 08 d1 bb 61 63 f2 3d 92 43 38 3d 29 89 30 bd
       -0.0063792374 0.11835361 0.044986315 -0.043099556
000320 16 b5 a9 3c f1 81 25 3c ec b1 e2 bc 19 9b 41 3c
       0.020716231 0.010101781 -0.02767273 0.011816763
000330 69 7b e5 bc 7f 9c f4 bc ac c3 95 3c 53 7c 86 bc
       -0.028012948 -0.02985978 0.01828178 -0.016416704
000340 75 ea 08 bc 35 73 0e 3d 29 55 cf bd 24 51 85 3d
       -0.00835668 0.03477784 -0.10123665 0.06509617
000350 9c 6d 8a 3d ba 15 0b bc 15 51 f7 3d 5d 5f 95 bd
       0.067591876 -0.008489067 0.12076012 -0.0729358
000360 b9 bd b3 bd 39 12 04 3d dd fe d0 3d 98 15 8f 3d
       -0.08776421 0.03224394 0.10204861 0.069865406
000370 fb 24 27 bc b0 6f 8b bd 1b 9a aa bd 8b 64 8d 3b
       -0.010201688 -0.06808412 -0.083301745 0.004314964
000380 f0 50 6b 3d ca 2d 1e 3d 01 4f f8 bc 79 a4 ac 3c
       0.057450235 0.038617887 -0.03031111 0.02107452
000390 95 8f 80 3d 1c d3 13 3e eb f2 80 bc 39 a5 39 3d
       0.06277386 0.14436 -0.015740832 0.045323584
0003a0 71 d0 5f bd 0a f9 18 bd b5 fc ec bc 68 16 41 3d
       -0.054642145 -0.037346877 -0.028929094 0.04714051
0003b0 ef 1f 8f bd 61 56 d5 3c 36 8b 90 bc 8c a2 24 bd
       -0.06988513 0.026042165 -0.017644506 -0.04019408
0003c0 8b b6 3c 3c 7a 32 57 3b b1 11 5d 3d 9a 22 0a 3d
       0.011518131 0.0032836483 0.05397195 0.033724405
0003d0 65 f4 55 3b 8b ef 6c 3e 54 b1 18 3e f2 4d 9b 3c
       0.0032646891 0.23138253 0.14911395 0.018958066
0003e0 03 de c3 3d 7e 1a 74 3d d5 a3 28 3d 48 fc b8 3d
       0.0956383 0.059595577 0.041171867 0.09032494
0003f0 83 9e a4 3c e6 74 e8 3d 39 2d ea 3d 39 d1 0c bb
       0.020095116 0.113504216 0.11434407 -0.002148701

conv2.bias f4 [16]
000000 c9 f5 46 be e5 9c 6c bf f1 3b 9a be a1 f1 b7 3f
       -0.19429697 -0.924269 -0.30123857 1.4370614
000010 9b 6c cf 3e 07 fc 03 3f 11 c1 03 bd cd dc 6c be
       0.40512547 0.5155644 -0.032166544 -0.23131104
000020 5c b1 83 3f d5 fd 8e 3d 0b 04 58 3e 4e 0c 2f be
       1.0288501 0.06982008 0.21095292 -0.17094538
000030 9e 00 07 3f 7c c1 49 bd cd d2 88 be 97 b7 bf 3d
       0.52735317 -0.049256787 -0.26723328 0.09361189

fc1.weight f4 [120, 400]
000000 6d c4 0a 3d 72 56 d3 bc 7e c7 07 3d d1 dc 07 3c
       0.033878732 -0.025798056 0.033149235 0.008292393
000010 d6 c2 89 3b 9e ef dd 3c 7e 47 b7 bc 72 70 98 3c
       0.0042041345 0.027091797 -0.022372957 0.018608306
000020 40 f7 c3 3c 88 9a ee bb 8b 8a dc 3c 32 b7 1a 3d
       0.023921609 -0.007281605 0.026921531 0.037772365
000030 b0 01 5d 3c 06 ea 5d 3c 05 3b 21 3d 4f 07 47 3d
       0.013489172 0.013544565 0.039362926 0.048590954
000040 e5 63 0b bb f1 b2 92 3b 39 30 ee b9 8c fd 4c bc
       -0.0021269259 0.004476898 -0.00045430826 -0.012511622
000050 e6 0a 2c bd d4 a2 26 3d 67 8d 77 bc f5 fd 09 bd
       -0.04200258 0.04068263 -0.015109397 -0.033689458
000060 09 aa b7 bc 5c 87 78 bc 54 28 38 bc c1 96 b7 3c
       -0.022419946 -0.015168991 -0.011240084 0.022410752
000070 a9 98 eb 3c ca 9d c9 bc 2c 3d ee 3c 61 81 f5 ba
       0.028759317 -0.024611373 0.029081903 -0.0018730575
000080 b3 70 de 3c e5 b4 06 3d 13 0f 5b ba ba 1d 43 bd
       0.027153349 0.03288736 -0.0008356433 -0.04763577
000090 00 19 8c bc 63 99 d2 bc 0c 50 7a bd d9 61 68 bb
       -0.017101765 -0.025707906 -0.061111495 -0.0035458712
0000a0 66 35 ee bc 69 51 3f 3d e6 b9 6e bc 54 22 a0 bc
       -0.029078197 0.0467085 -0.014570689 -0.019547619
0000b0 7f ca dc bc 0a 31 b3 3c 12 f7 fe 3c 4e 8f 09 bd
       -0.026952026 0.02187397 0.031123672 -0.03358393
0000c0 c2 59 88 bc 36 49 14 3d f1 49 ae bb 66 c3 2c bd
       -0.016644362 0.036202632 -0.005318873 -0.042178534
0000d0 ce b1 15 3d 3d 27 49 3d 88 da ee bc 6c 2f 04 3d
       0.03654652 0.049109686 -0.029156938 0.032271788
0000e0 f4 8f 4a bd 40 e4 ee 3c 04 fa 8a ba de 94 2b bc
       -0.04945369 0.029161572 -0.0010603075 -0.010472504
0000f0 3b 72 39 bd b0 ea 17 3d d3 a7 7f bb a6 50 d9 3c
       -0.045274954 0.03708905 -0.0039009943 0.026527714
000100 51 cb de bc 14 15 b3 3c 98 b3 d6 3c a4 87 0d bd
       -0.027196558 0.021860637 0.026208684 -0.034553185
000110 3e f5 49 bd 67 6c 90 3c fa d8 ab 3c f9 24 fb 3c
       -0.049306147 0.017629815 0.020977486 0.030657278
000120 b6 a7 dc bc f8 e8 10 3d 6c 6d 53 bd 1c 4c 00 3d
       -0.02693544 0.035378426 -0.051618025 0.031322584
000130 4c 33 c5 3b c4 b4 46 bd 3f 45 4b 3d 6d 74 20 bd
       0.006018078 -0.048512235 0.049626585 -0.039173532
000140 31 a7 01 bb 1c 22 0c bd 15 99 2f bd 70 7f e1 3c
       -0.0019783492 -0.034212217 -0.0428706 0.027526587
000150 b6 f2 eb bc e6 f0 0e 3d f3 14 16 3c 22 d1 24 3d
       -0.028802257 0.034897707 0.009160268 0.040238507
000160 f2 a3 ff 3c 93 e4 e0 bb 1f d4 ad ba c0 36 b6 bc
       0.031206105 -0.0068631857 -0.001326207 -0.022242904
000170 14 23 8e bc ec 71 5b bd b4 43 22 bc e0 f5 2b 3d
       -0.01735071 -0.05357544 -0.009903837 0.04198253
000180 e4 c9 49 bc 84 7b e8 3c 97 e5 25 bd a8 e4 b4 3c
       -0.012316201 0.02837921 -0.040502157 0.022081688
000190 54 77 42 3d 94 01 d6 bc 20 c8 b7 3c b5 99 82 3b
       0.04747708 -0.0261238 0.022434294 0.0039856085
0001a0 31 2f d3 bc 0a b1 d9 3c 0c a1 2a bd fc ac d9 3c
       -0.025779339 0.026573677 -0.041657493 0.026571743
0001b0 85 da 60 3c 5d e1 3e bd a0 59 9a 3c 8c e5 cc 3c
       0.013723974 -0.046601642 0.018841565 0.0250118
0001c0 3b 5f b3 bc 61 50 e0 3c 6b 89 0d bd 18 a6 b2 3c
       -0.021895995 0.027382078 -0.03455488 0.021807715
0001d0 3b 9d f3 bc e9 f7 fa 3a d2 69 42 ba 0b 55 17 3b
       -0.02973806 0.0019147369 -0.0007416281 0.002309146
0001e0 d5 92 9b bc ad 77 37 bc 0e 40 be ba fb 0f 40 bd
       -0.018990913 -0.0111979665 -0.0014514939 -0.04689024
0001f0 fb 64 0f bb 2d a6 29 bd bd 52 04 3d 52 2a da bc
       -0.0021880257 -0.041418243 0.032305468 -0.026631508
000200 90 e7 5f bc 19 9a 14 3d e6 dc eb 3c 2a 8a 33 3d
       -0.013666049 0.03627977 0.028791856 0.043832935
000210 ab 73 23 bd 29 07 e1 bc ca 24 36 bd c3 71 4a bd
       -0.03990523 -0.027469235 -0.04446868 -0.049424898
000220 97 bf 23 3d 64 49 15 bd 4f 7b 2d bb 88 a7 94 bb
       0.039977636 -0.036446944 -0.0026471203 -0.004536573
000230 74 5f fd 3c 5b 19 4c 3d 7c ad 7b bc 14 a0 50 3d
       0.030929305 0.04982887 -0.015361186 0.050933912
000240 9a 68 02 bd 8c 55 0f bb 7d 2d c9 3c b4 25 cf bc
       -0.031838037 -0.0021871058 0.024557823 -0.025286533
000250 51 8a 99 3c 63 41 9a 3c 4e 68 9a 3c 60 34 5d bc
       0.018742712 0.018830007 0.018848564 -0.013501257
000260 46 cc 3e 3d 81 7d 07 3d c6 17 2e bd 6d e3 0b bc
       0.04658153 0.033078674 -0.04250314 -0.008538109
000270 d5 59 1b bd 04 08 6b 3c 17 74 0b 3d 3b 12 60 bc
       -0.037927467 0.014345173 0.03404626 -0.0136762215
000280 6d 6c 71 ba 77 ca 24 3d 5b 69 1b bd f5 80 bb bc
       -0.0009209577 0.040232148 -0.03794227 -0.02288864
000290 33 4f 00 bd 89 49 e2 bc 4e e9 8a 3b 30 a1 2b bd
       -0.03132553 -0.027622955 0.004239238 -0.041901767
0002a0 c1 d6 43 bd 61 71 23 bd 44 d9 ea 3c fc b7 9a bc
       -0.047812227 -0.03990305 0.028668053 -0.018886559
0002b0 f5 e3 48 bd 23 21 21 bd 89 72 e5 bc a0 29 96 bc
       -0.04904552 -0.039338242 -0.028008716 -0.018330395
0002c0 d8 60 2d 3c 83 3a 65 3a 03 ab c7 bc 1a 63 ff 3c
       0.010582171 0.00087443757 -0.024373537 0.031175185
0002d0 65 dc 8d 3c 26 1c e1 bc df d8 df bc 0c b9 02 3d
       0.017317006 -0.027479243 -0.027325092 0.031914756
0002e0 7e 10 59 3b f7 28 17 bd 0a f8 2d 3c fa 58 7a 3b
       0.0033121402 -0.0369043 0.010618219 0.0038200007
0002f0 61 64 44 bd 7c 90 ec ba 5f 71 97 3c ed 65 52 bc
       -0.04794729 -0.0018048431 0.018486677 -0.012841684
000300 e4 f2 2b 3c ee 55 0a bd cd 53 87 3c c0 80 20 3d
       0.010494921 -0.033773355 0.016519452 0.039185286
000310 da 1d 4c 3b 6e 9c ab 3c b4 e6 47 3c cf 18 8d bc
       0.0031145723 0.020948615 0.012201 -0.017223744
000320 98 47 19 ba 2c 5e ef 3b f9 95 b7 3c 5b 66 bd 3c
       -0.0005847155 0.0073049273 0.02241038 0.023120096
000330 99 4e df bc 62 f6 e9 3c ce f8 18 bd f7 f3 aa bc
       -0.027259158 0.028559867 -0.037346654 -0.020868285
000340 f7 20 4a 3c ba f8 35 3d 2f 07 12 3d 9f 40 f2 3c
       0.012336961 0.044426657 0.035651382 0.02957183
000350 17 c7 9b 3c f7 58 96 bc c0 71 2d 3c 59 c6 17 bd
       0.019015832 -0.018352969 0.010586202 -0.037054393
000360 e8 08 cc bc 8e e2 28 bd 1a ad 5c 3b f6 11 f0 3c
       -0.02490659 -0.041231684 0.0033672513 0.02930544
000370 81 60 5b 3a 09 64 27 3d 8f cc 9b 3c 1c 94 b4 3c
       0.0008368567 0.040866885 0.01901844 0.02204328
000380 18 39 12 bd b1 e3 bf 3c 6a 8d ab bc 27 ef 08 bd
       -0.03569898 0.023424001 -0.020941455 -0.0334312
000390 33 0f 3a bc d4 54 21 3d 8a ca 0d 3b 07 ac 4c 3d
       -0.011356163 0.03938754 0.0021635615 0.049968746
0003a0 83 2f 10 3d 76 3b c7 bc 57 a6 f0 3c 5f 40 bf bc
       0.03520156 -0.024320345 0.029376192 -0.023346124
0003b0 df 2b 01 bd 79 29 10 bd ab 1b 5e 3d 2e e2 b3 bb
       -0.03153598 -0.0351958 0.054225605 -0.005489609
0003c0 3d 8c 1f bd a4 fc 37 bd 16 ea 40 bd f8 05 c1 3c
       -0.0389521 -0.04491867 -0.04709824 0.023562416
0003d0 04 e7 52 3c 79 e9 59 bd 26 81 d6 bc 5a 21 fa bc
       0.012872461 -0.053201173 -0.02618463 -0.030533481
0003e0 4f 5b 3f 3d 7c a7 d1 3c 0f 99 94 bb 3e 35 17 3d
       0.046717938 0.025592558 -0.0045348476 0.03691601
0003f0 91 11 b4 bc 47 4c 19 bd 4e 95 d0 3c 9d b6 26 bd
       -0.021981033 -0.03742626 0.025461819 -0.040701497

fc1.bias f4 [120]
000000 30 2b c8 bc 74 a8 d4 3d 8e 8d b7 bc 9c fa 12 3e
       -0.024434656 0.103836924 -0.022406366 0.14353412
000010 f0 be fb 3d 82 9a 3d bd a6 48 87 3c ac 38 2a 3d
       0.12292278 -0.04628993 0.016514134 0.041557953
000020 55 e2 0c 3c e5 0a 3f bd d2 33 c3 bc 42 23 5e bc
       0.008598884 -0.04664125 -0.02382842 -0.013558211
000030 8f 9d 64 bc b8 64 73 bc ee eb a2 bd e1 e6 df ba
       -0.0139535805 -0.014855556 -0.07955156 -0.0017082357
000040 d1 93 c1 3c 74 80 22 bd a1 09 ad 3d f5 f6 8d 3d
       0.023630055 -0.039673284 0.08449102 0.06931869
000050 01 4c 88 3d 12 f8 d9 3c d6 c4 57 3d f1 44 b6 bc
       0.066551216 0.026607547 0.05267795 -0.02224967
000060 86 a5 43 bd 80 e0 13 3d ae 2d aa 3b 45 11 17 3b
       -0.047765277 0.03610277 0.0051934337 0.0023051065
000070 28 9e ad 3d 11 88 b3 bc 57 2b f5 3c 54 61 ad bd
       0.084774315 -0.021915467 0.029927893 -0.084658295
000080 f5 11 9c 3d bf f0 e6 3d 29 d5 82 3d 5f 70 8e 3e
       0.076206125 0.112763874 0.06388313 0.27820107
000090 09 aa 31 3e 7b f0 97 bc 06 c6 89 3c d6 cc 80 3d
       0.1735002 -0.018547287 0.016818058 0.06289069
0000a0 10 ec 58 bc 27 41 bd 3d 19 5d 41 3e 10 5d 54 bc
       -0.013239875 0.092409424 0.1888317 -0.012961641
0000b0 18 99 91 3d 53 45 14 3e 1b 9b 84 3d 74 1c 51 3d
       0.071092784 0.1447957 0.064748965 0.051052526
0000c0 ca d6 f6 3d 9b 5b f2 3d 9e 3f 0f 3c 23 97 16 bc
       0.120526865 0.118338786 0.008743195 -0.009191307
0000d0 70 5b dd 3c 77 b3 2f 3e a7 24 d8 bd 7b 94 93 3d
       0.02702114 0.17158304 -0.10553866 0.07206055
0000e0 0a 43 98 ba 77 fb b3 3d db e8 44 bd 7d 8e ab ba
       -0.0011616659 0.087881975 -0.04807363 -0.001308873
0000f0 1f b3 e2 3c b1 44 f8 3d 61 a0 2f bd e8 55 31 3d
       0.027673302 0.12122477 -0.04287756 0.043294817
000100 bc 53 3f bd 4e 81 00 3d 12 15 5f bb 35 33 07 bc
       -0.046710715 0.031373315 -0.0034039658 -0.008251955
000110 d7 db f2 3d 88 b4 55 bd e6 34 56 3e f7 07 ca 3d
       0.118583374 -0.05217412 0.20918617 0.098648004
000120 c2 56 98 bc d6 3f 6c 3e ca 2a aa bd 64 48 73 3d
       -0.018596057 0.23071226 -0.083089426 0.05939521
000130 98 b2 bb bc 53 28 27 3d cf 62 6a bd b0 b3 a9 3d
       -0.022912309 0.04080994 -0.057223137 0.08286226
000140 07 4e b2 3b 46 9e 7c 3e c9 39 c1 bc d4 a0 92 3d
       0.0054414305 0.24669752 -0.023587124 0.07159582
000150 20 04 0b 3d d1 86 4c 3b 78 59 98 bb a8 64 d5 bc
       0.03393948 0.0031208287 -0.0046493374 -0.026048973
000160 f4 65 9c bc 16 d5 d9 3c 2e c0 ee 3d d8 c4 2f 3c
       -0.019091584 0.026590865 0.11657749 0.010728084
000170 35 7c 16 bd fa 59 96 3e df c2 a6 3d c6 2b 18 3e
       -0.036739547 0.29365522 0.081426375 0.14860448
000180 e3 71 0a be 1d 3b 34 bb dc 13 17 3e d9 a1 ee 3d
       -0.13520007 -0.0027501055 0.1475367 0.11651964
000190 f3 92 1b 3e e6 0c 70 3d 7c ea 21 3d 39 47 03 be
       0.15192775 0.05860605 0.039530262 -0.12820138
0001a0 3d e3 87 3d d9 51 00 3e f2 da b6 bc 7d fc ee 3c
       0.06635139 0.12531222 -0.022321198 0.02917313
0001b0 8c 9e 29 bd 72 12 5e 3c 09 6f 49 3d d4 60 80 3d
       -0.041410968 0.013554202 0.049178157 0.062684685
0001c0 a9 69 49 bc ff 4d 9e bd 68 da 05 bd f2 bf e1 bd
       -0.012293258 -0.0772972 -0.03267899 -0.11022939
0001d0 23 f3 85 bd 64 66 11 3d 9d 61 2a 3e a4 01 2c 3e
       -0.06540515 0.035498038 0.16638799 0.16797501

fc2.weight f4 [84, 120]
000000 c9 52 4e 3d 36 b9 a7 bc 59 3e a4 3c 4e 58 91 bd
       0.05037192 -0.020474058 0.02004926 -0.07096921
000010 44 f4 2e 3d 18 8f 70 3d ef 0a ca 3c 1e d6 c1 3c
       0.04271342 0.058730215 0.024663417 0.02366167
000020 2c dc c7 bd 3e 5a 86 bc 98 5f 6f 3d 39 8b cf bd
       -0.09758791 -0.016400453 0.058440775 -0.101339765
000030 c6 66 82 3d ea b8 d2 bd 4f 1b c6 bd 4c b8 d4 3c
       0.06367259 -0.10289176 -0.096731775 0.025966786
000040 a3 9b 6d 3a 7a c1 14 bd 30 d3 94 bd 76 c6 c0 bc
       0.0009064024 -0.036317326 -0.07266843 -0.023532134
000050 66 96 a7 bd c6 6b 12 be b9 49 c8 ba 3d 87 75 3d
       -0.08182983 -0.14298925 -0.001528076 0.059943426
000060 97 0c a4 bd 06 cf 06 bc fd 06 7a bd 54 0a 70 3d
       -0.08010214 -0.008228069 -0.06104182 0.0586036
000070 ab af c9 bc f7 86 f0 3c df 5d 54 bd f1 77 9c 3c
       -0.024619898 0.029361231 -0.051847335 0.019100161
000080 43 be a2 bc d2 93 ac bd 58 ae ca 3d 45 24 99 3d
       -0.019866114 -0.08426632 0.09896535 0.07477621
000090 35 24 a3 bd 91 84 c6 bd 2c e2 d5 bd 73 2b 47 bd
       -0.0796589 -0.09693254 -0.104435295 -0.04862542
0000a0 1f 79 a2 bc 7b 17 a1 3d 5c 6b 44 3d 05 12 73 bd
       -0.019833146 0.07865807 0.04795395 -0.059343357
0000b0 b4 ea d8 bc 5b 54 0f 3d 42 fc 8e bc 26 e1 79 3d
       -0.026479103 0.034992557 -0.01745427 0.061005734
0000c0 fe 3c 3f 3d e4 75 1c bd 5f 13 b0 bd e5 a8 85 bd
       0.046689026 -0.038198367 -0.08597445 -0.06526355
0000d0 ff 03 5c 3d 25 8d 93 bd 30 03 8c bd 51 dc 32 3d
       0.05371475 -0.072046556 -0.068365455 0.04366714
0000e0 74 3a ca bd c7 04 60 3d b9 ba c8 bd 36 ef 6e 3c
       -0.0987443 0.054692056 -0.098012395 0.0145833995
0000f0 c8 04 a7 3d f2 a5 38 bd 02 de ea 3b 5d 8b ba bc
       0.08155209 -0.045080133 0.0071675787 -0.022771532
000100 15 52 3f 3d 92 dc 38 3c 01 00 38 bd af fc 2d bc
       0.04670914 0.011283057 -0.04492188 -0.0106193265
000110 17 9f 7b 3d ba 12 4f 3c 92 c1 e5 bc 5b 7b ba 3c
       0.061431017 0.012638742 -0.028046403 0.022763899
000120 9f d8 8c bc 6b e6 bf 3c d9 a9 3b bd 0a 0f c8 3c
       -0.017193137 0.023425302 -0.045816276 0.024421234
000130 21 e4 af 3c 75 a4 27 bc 97 94 06 bd e9 e8 92 3d
       0.021471085 -0.010232081 -0.03285655 0.0717333
000140 c4 eb 27 3c 08 2b 80 3c 03 33 0e 3d a7 1b 9f 3c
       0.010249082 0.015645519 0.034716617 0.019422365
000150 36 b2 04 be 20 9d 85 3d 09 43 ea 3b 48 fb b3 3b
       -0.12958607 0.0652411 0.0071491045 0.0054926015
000160 39 bc 1c 3d e1 bd 12 3d 03 52 59 bd e8 19 05 3d
       0.03826544 0.035825614 -0.053056728 0.03249541
000170 de 2f 8c bd 7a fa 88 3d 1f e2 e4 bc c2 27 75 bb
       -0.068450674 0.066883996 -0.027939854 -0.003740773
000180 04 bf 3c be ec a7 bc bd 63 40 5d 3c 2d c2 89 bb
       -0.18432242 -0.09211716 0.0135041205 -0.0042040558
000190 8c 14 7f bd fc 5a a8 3c b3 34 68 3d cb 7f 0c bd
       -0.062275454 0.020551197 0.056690883 -0.03430156
0001a0 d7 51 e5 3c 5f 62 94 3d 76 7e 74 3c ad 26 b5 3d
       0.027993126 0.07245325 0.014922729 0.088452674
0001b0 8d 54 4d bd 20 87 c9 bd 43 39 6f bd 86 4b 12 bc
       -0.050129462 -0.09840226 -0.05840422 -0.008929139
0001c0 23 79 d1 bd dc ad 14 bd 03 4d 48 bc d5 df 23 be
       -0.10228183 -0.036298618 -0.012225392 -0.16003354
0001d0 00 e0 33 bb b3 29 3c 3d d5 71 ae bd 03 c4 7b 3d
       -0.0027446747 0.045938205 -0.085178055 0.06146623
0001e0 7c d0 8c bd 5d 88 6b bd 46 cb 41 bd 74 15 4e 3d
       -0.06875703 -0.057503093 -0.047312997 0.050313428
0001f0 37 12 0c 3d ee 49 14 bd 83 c9 8d 3d d4 03 88 bd
       0.03419706 -0.036203317 0.06923201 -0.06641355
000200 c7 00 02 be 98 4e bf bd 32 e6 95 bd 8e ea 84 3d
       -0.12695609 -0.093411624 -0.07319297 0.0649005
000210 52 ee f3 3c 14 2f 94 3d 85 40 ae 3b 52 ce ac 3d
       0.029776726 0.07235542 0.00531775 0.0843779
000220 f7 50 15 3c d1 32 01 3d 78 cb 85 bd d0 c9 70 bc
       0.009113542 0.031542603 -0.06532949 -0.014696553
000230 cd 8a fc bb 35 90 f8 bd f0 c7 f7 b9 91 ba 7f bd
       -0.007706976 -0.1213688 -0.00047260476 -0.062433783
000240 4d 1e 98 3a bb 14 8d 3d 92 c6 02 bd 9d 0c 2c 3d
       0.001160571 0.0688872 -0.031927653 0.042004216
000250 31 15 1b bb 15 06 89 bc 4d f1 5e 3b 3e f2 2e bd
       -0.0023663754 -0.016726533 0.0034018338 -0.04271149
000260 ce a1 8b bd 41 00 0b 3e 93 6b 80 3b 39 c7 d5 bc
       -0.06817971 0.13574316 0.003919074 -0.026095973
000270 8f 98 83 3c c3 28 1f 3d 8d 6f 8b bd 36 56 83 bd
       0.016063957 0.038857233 -0.06808386 -0.06412928
000280 42 56 38 3b 4e f2 ff 3d 0d 2f bd 3d 14 bc 5f 3d
       0.0028127586 0.12497388 0.0923749 0.054622725
000290 c4 8f b0 3d c6 55 d3 3c d5 c0 9d 3c 28 36 dd 3d
       0.08621171 0.025797736 0.019256989 0.10801345
0002a0 24 40 bd bc b7 87 08 be e2 a0 de bd 5e 6f 70 bc
       -0.023101874 -0.13333021 -0.1087053 -0.0146749895
0002b0 b3 b7 2e bd ea 6b 69 3c d6 15 e3 bd 43 3c 82 bd
       -0.042655658 0.01424692 -0.11088149 -0.0635915
0002c0 df 79 d6 bb cd 56 1a bd 8d 16 93 3d 78 e7 1a be
       -0.00654529 -0.037680436 0.071820356 -0.15127361
0002d0 d8 bd 0f 3d 25 9e 42 bc 0b b9 19 bd f8 cf 1b bd
       0.03509316 -0.011878525 -0.037529986 -0.03804013
0002e0 56 90 84 3d 32 72 9a bd 9b 02 a2 bd de d1 0d 3d
       0.064728424 -0.07541312 -0.07910653 0.034623973
0002f0 4c dc e8 bc ea e8 a7 bd b7 e6 7b 3b 67 b4 bc bd
       -0.028425358 -0.08198722 0.0038437077 -0.092140965
000300 16 6f 15 be f9 d1 51 3d d2 0c f4 3d d4 eb 31 3d
       -0.14593157 0.051225636 0.11916508 0.043437794
000310 5b f5 eb 3b 2f 8f af 3d af 16 63 bd 74 0d 8c 3c
       0.0072008795 0.08572232 -0.055441555 0.017096259
000320 79 08 b8 bc 5c a1 ff bd 5f 95 92 bd b8 e2 86 bd
       -0.022464978 -0.12481949 -0.071573965 -0.06586212
000330 b8 a2 e8 bd d5 55 df 3c cc e1 96 bd e6 e7 30 bc
       -0.11359161 0.027262608 -0.07367286 -0.010797476
000340 e1 16 8a bd 69 cf 4d ba d9 86 9d 3d 5e f3 24 3c
       -0.06742645 -0.0007851036 0.07691736 0.010067789
000350 27 48 09 3d 8f 71 99 ba c7 0c c3 bd 99 1d 9b 3c
       0.033516075 -0.0011706817 -0.095239215 0.018935012
000360 80 fc ab bd a0 c1 55 bc 7d f9 01 be b1 4f 92 bd
       -0.0839777 -0.013046652 -0.12692828 -0.07144106
000370 7c 3b 94 3c 31 b9 1f 3b 2a 33 54 bd ee d3 86 bd
       0.01809477 0.0024371857 -0.051806606 -0.06583391
000380 6d dd 50 3d a5 49 e4 bd 42 6c 34 3d e0 ca 3e 3d
       0.050992418 -0.11146859 0.044048555 0.046580195
000390 b6 37 9f bc fe 9c cb 3d a4 95 c7 bd 20 72 0a bd
       -0.019435745 0.09942053 -0.097453386 -0.033800244
0003a0 e9 73 00 3d 0c 7c 88 3c 3c 51 0f 3e 74 89 ec bd
       0.03136054 0.016660713 0.13995832 -0.115496546
0003b0 43 f7 5d bd d6 12 32 3d 95 e7 6a 3e ab 0a a6 bc
       -0.054190885 0.043474995 0.22939904 -0.020268759
0003c0 f7 2f 0f bc 14 d3 7a bd b4 a2 be bc 5c a1 19 3d
       -0.008739463 -0.061236456 -0.023270942 0.0375074
0003d0 54 cd 4b be 86 98 48 3d 19 a6 06 3e fa fc 17 3e
       -0.19902545 0.048973583 0.13149299 0.14842597
0003e0 68 9e 08 3d 43 1e a1 3d 5b 59 d6 bd 95 41 49 3d
       0.033354193 0.078671 -0.10466262 0.04913481
0003f0 8e 63 39 bc 97 f6 09 3e aa 00 50 3b 10 38 29 3e
       -0.01131524 0.13472973 0.0031738677 0.16525292

fc2.bias f4 [84]
000000 00 97 b4 3d 6d 2f 96 3d c5 ff 13 3e 92 86 2f 3d
       0.088178635 0.073332645 0.14453037 0.042852946
000010 e9 be f2 3d a5 a4 f1 3d 23 12 e6 ba 6c 55 5b 3e
       0.118528195 0.117989816 -0.0017553013 0.21419305
000020 9f d2 97 3d 27 ed 3e 3e b8 51 c5 3d 58 b9 0c 3e
       0.0741322 0.18645154 0.09634727 0.13742578
000030 cd 78 55 ba 22 5e bb 3e f8 f1 ce 3d 54 92 ae bd
       -0.0008143306 0.36595255 0.101047456 -0.085240036
000040 83 3c 1d 3d 5b 50 6a bd 1e b0 13 3e f0 19 b9 3c
       0.038387787 -0.05720554 0.14422652 0.022595376
000050 53 e3 88 bc ac c1 9e bd 94 fe 6b 3e a7 c0 ec 3d
       -0.01670996 -0.07751784 0.23046333 0.11560183
000060 b1 74 33 bd 8d e9 04 3e a2 ed 83 bd ae 85 a0 3e
       -0.043812457 0.12979718 -0.06441809 0.3135199
000070 95 f1 06 3e 42 f5 92 3d 8a 5b b5 3d 3d 4c be 3d
       0.13178094 0.071756855 0.0885535 0.09291885
000080 8d 01 43 bd b2 90 a1 bc 1b 62 21 bc c9 71 d7 3d
       -0.0476089 -0.019722316 -0.00985005 0.1051975
000090 89 95 3d 3e ef c1 ed 3c c3 16 40 bd 36 ae c1 3e
       0.18514074 0.029023139 -0.046896707 0.37828225
0000a0 1f 19 80 3e 74 24 ec bc c7 99 bc 3d d3 1b be bc
       0.25019166 -0.028825976 0.09209018 -0.023206627
0000b0 e3 5a 45 3e b1 c7 30 bd ce 4d 4b 3e 05 a9 9e 3e
       0.19272952 -0.04315919 0.19853899 0.30988327
0000c0 1b 59 ce bd e8 2f a7 3e 1a 03 d8 bc 38 22 85 3e
       -0.10075589 0.32653737 -0.026368666 0.2600267
0000d0 f3 b6 8f 3d 74 af b2 3e 95 a1 02 be f2 da 2d bd
       0.07017317 0.34899485 -0.12756951 -0.04244513
0000e0 f3 38 ba 3d c6 c3 b0 3d 00 75 f3 3e 3d e6 fc bc
       0.090928935 0.08631091 0.475502 -0.030871505
0000f0 8f a0 dd bd 5d 39 13 3e ae d1 3f 3d 39 25 8f 3e
       -0.1082164 0.14377351 0.046830826 0.27958086
000100 90 d8 b8 3d cb 34 87 bc 75 e9 9e 3d 36 8b ff 3d
       0.09025681 -0.016504666 0.07759372 0.12477724
000110 82 72 5e 3c d1 24 14 3e 9c bb 9b bd 8d c2 5e bb
       0.0135771055 0.1446717 -0.07604143 -0.0033990473
000120 d8 c6 55 3c d8 2a d3 bc 2e 10 c9 bc 31 3b d7 3d
       0.013047896 -0.025777265 -0.024543848 0.10509337
000130 5d 6e 24 bc 7a f4 0e 3d 5e 57 6b 3e 03 ae 2d bd
       -0.010036078 0.03490112 0.22982547 -0.04240228
000140 ef e6 8f bc 83 c6 97 3e 2a f3 24 3c c9 2a 2c bd
       -0.017566172 0.2964364 0.01006774 -0.04203299

fc3.weight f4 [10, 84]
000000 e1 0b 0f 3c 35 72 b9 bd 71 97 05 3e bd 71 0f 3e
       0.0087308595 -0.090549864 0.13046052 0.14008231
000010 48 ab 58 3e dc 40 5d 3e ac 7b 1f 3e 0b 95 83 3d
       0.21159089 0.21606773 0.15574521 0.06424912
000020 87 48 61 3e 77 c2 19 3e 0b 9e 6c 3e 83 42 d9 3d
       0.22000323 0.15015589 0.23107164 0.10608389
000030 bc 40 2c 3e fc 8a f6 bc f5 03 a9 bc 85 aa 41 3e
       0.16821569 -0.03009557 -0.02063177 0.18912704
000040 cd 1c bd bd 2e 7f 73 bd 00 d0 90 be 6f 8b 21 3c
       -0.09234009 -0.05944746 -0.2828369 0.009859904
000050 26 f8 2f be b0 c2 72 bb 92 b9 bd bc 0c 54 5d 3d
       -0.17184505 -0.0037042312 -0.023159776 0.05403523
000060 48 8f 06 bd 00 86 2a 3d e9 5b 13 bd ca a8 d6 bd
       -0.032851487 0.0416317 -0.035976324 -0.10481413
000070 f7 ba 56 be 20 73 46 3d 11 4d a2 3d 6a c8 3a 3d
       -0.20969759 0.048449636 0.079248555 0.045601286
000080 2a 8b 34 3e 87 ce 20 3e 22 92 c5 bc 15 5b 9d bd
       0.17631212 0.15703784 -0.024117533 -0.07683388
000090 1f f4 8b bd d4 6e a3 bc 58 41 25 3d cf 68 f8 bd
       -0.06833672 -0.019950308 0.04034552 -0.12129366
0000a0 b7 45 4b 3d 97 93 d4 3d 8a 90 be bc 17 ee 93 3d
       0.049627032 0.10379713 -0.023262281 0.072231464
0000b0 dd 0a 7a 3d 52 0f ae 3d 24 13 19 3d 73 e2 bf bd
       0.061045516 0.08499016 0.03737177 -0.09369364
0000c0 7c cf a1 bc 8e 93 a9 be 53 22 18 be f2 3a 8b be
       -0.019752257 -0.33120388 -0.14856844 -0.2719341
0000d0 3f fd 03 3e b8 c7 83 bd 2c 7d 6e 3d 66 6c 27 be
       0.12889574 -0.06434578 0.058224842 -0.16349944
0000e0 1b c7 83 3d 63 ce ca 3d 9c 09 26 be 8a 41 79 bd
       0.06434461 0.099026464 -0.16214603 -0.06085352
0000f0 53 a9 2b bd fb 13 16 be f5 c6 02 bc 50 d1 8c be
       -0.041909527 -0.1465606 -0.007982005 -0.27503443
000100 c4 be 6a 3e 2d 41 3e bd 1b 1a 1a 3e 9f c3 2c 3e
       0.22924334 -0.046448875 0.15049021 0.16871499
000110 89 3b 93 3d e9 6e b7 3c 77 a4 e4 bd 2f a8 f0 bc
       0.0718909 0.022391753 -0.11164182 -0.029377071
000120 1f 17 ff bd f0 41 90 3e 36 cd 14 be 10 de 42 3e
       -0.12455582 0.28175306 -0.14531407 0.19030023
000130 fe 72 8b 3d 49 8a 57 be 3a 68 35 3e 06 8a 32 3e
       0.068090424 -0.21048845 0.1771554 0.17435464
000140 96 63 bd bd 06 85 d2 bd ca 72 11 be 1c c0 06 3e
       -0.0924751 -0.102792785 -0.14203945 0.13159221
000150 46 e1 e4 3d ff 19 a9 3e 2e 68 83 3e 6d f0 b4 3d
       0.1117578 0.33027646 0.2566542 0.0883492
000160 8f 0a 92 be 91 08 5d be 68 e6 8c 3d 9d 00 9d bd
       -0.2852368 -0.21585299 0.06879884 -0.076661326
000170 45 b5 a7 bd 19 33 96 be 28 23 09 be 0b 55 9b bd
       -0.08188871 -0.2933586 -0.13392317 -0.0758458
000180 31 e6 25 3e cc 21 7d be 25 34 a0 3d 68 21 04 be
       0.16201092 -0.24719924 0.07822446 -0.12903368
000190 72 42 01 bd 99 35 60 3c 6e 4e 8a 3e 98 15 88 3d
       -0.031557508 0.013684654 0.27012962 0.06644744
0001a0 89 1a 78 3d d7 22 06 bd 55 fa a3 3e 69 e4 b9 3e
       0.06057218 -0.03274807 0.32026926 0.36307076
0001b0 7e c9 df 3d fd b6 12 3e c5 de ec 3d d7 49 b5 bd
       0.109271035 0.14327617 0.115659274 -0.088519745
0001c0 dc 72 d0 3d 95 93 b8 bd f7 23 3b be a5 0d 2d be
       0.10178158 -0.09012524 -0.18275438 -0.16899736
0001d0 66 89 00 3e d2 b8 a7 be 8f 2d 1d bd e3 87 ac 3d
       0.12552413 -0.32758194 -0.038373526 0.08424356
0001e0 f7 4d 71 3c bd f7 d6 3c 3e f4 0b bd b1 9f a7 be
       0.014728061 0.026241178 -0.034168474 -0.32739022
0001f0 68 b3 4c 3e 60 22 99 bd 85 cd d2 3a 41 87 7b 3d
       0.19990313 -0.0747726 0.0016082978 0.061408285
000200 55 ab bc 3d 4e 9b 3d bd 73 40 db bd c3 b5 73 3d
       0.092123665 -0.04629069 -0.10705652 0.059499513
000210 d4 35 f1 3d de 73 aa be 2b d4 ad 3d 38 e9 c8 3d
       0.11777845 -0.33291525 0.084877335 0.09810108
000220 a2 e3 db bd 3f 67 3e be 34 ac 90 3d b6 c8 dc bd
       -0.10736777 -0.18594073 0.07064095 -0.1078047
000230 ea 45 06 3d 81 25 cf bb cc 3d 6d be 47 9c 6a 3e
       0.03278152 -0.0063216095 -0.23168105 0.22911178
000240 8c 3b 5c bd d5 42 bd 3d 27 e8 1b be 89 21 d0 be
       -0.053767726 0.09241263 -0.15225278 -0.40650585
000250 69 b1 04 be c1 d0 dc 3d a6 bd 7b 3e 18 7a 27 3c
       -0.12958302 0.10782004 0.24584064 0.0102219805
000260 23 72 b2 bd 08 2a 95 bd df 6c ad 3c 37 28 37 3e
       -0.08713176 -0.072834074 0.021170078 0.17886434
000270 3b c9 f2 3d db 88 89 3b 49 7d 9e bd f7 f8 b7 bd
       0.11854788 0.0041972226 -0.0773874 -0.08983033
000280 17 bf 1a be aa e4 c8 3d 53 58 65 3e 7c 4b e3 3d
       -0.15111957 0.09809239 0.22396974 0.11098382
000290 45 6d 78 bd 32 d3 b3 3b d5 4f 58 3d 10 07 46 3e
       -0.060651083 0.005487823 0.05281051 0.19338632
0002a0 ab 7e 95 3e d0 b6 cc bd 08 fd 75 be 85 e8 81 bd
       0.29198202 -0.09995806 -0.24022305 -0.06343178
0002b0 ba 0b 0f 3e 19 57 35 3e 21 97 3a 3c a2 14 74 3e
       0.13969317 0.17709006 0.011388571 0.23835996
0002c0 b8 14 1f 3d cc 6a 98 bd 62 f6 8c 3e bf 7d 3e bd
       0.03883812 -0.07442245 0.27531725 -0.04650664
0002d0 f9 a5 90 bc 73 c8 82 3e 1d 1b b3 bd eb d1 bc 3c
       -0.017657267 0.25543556 -0.08745406 0.023049315
0002e0 8d 88 18 3e 59 f7 ad 3d 46 0c 5d bd 9e fc 2e 3d
       0.1489584 0.084944434 -0.053966783 0.042721383
0002f0 c2 67 8a 3d 96 f0 27 3e 1e 10 af 3c 19 f6 c9 bd
       0.067580715 0.1640037 0.02136999 -0.098613925
000300 63 5c 1d be 93 55 ad bd 2c d6 ac bd 43 6f 18 3e
       -0.15367274 -0.084635876 -0.084392875 0.14886193
000310 c3 f2 4a 3e 25 62 10 3e 55 4d 20 be de 56 07 3e
       0.19819169 0.14099939 -0.156545 0.13216731
000320 21 e3 e7 3d b9 27 1c 3e 63 3a 27 bd 83 c6 44 bd
       0.11322618 0.15249528 -0.040827166 -0.048040878
000330 86 a2 24 3e 5e 88 40 3e f9 46 a8 3d e7 0e 21 3e
       0.16077623 0.1880202 0.08216662 0.15728341
000340 50 0a 08 be 5e 40 e2 3d b1 8a a2 3d a5 5a b7 bd
       -0.13285184 0.11047433 0.079366095 -0.08952836
000350 96 8d 6a be e1 a9 03 3d e0 c6 c8 bd 91 e8 78 3d
       -0.22905573 0.03214443 -0.098035574 0.060768668
000360 9f 8d a9 3d c9 9b 20 bd da a8 26 3d 5f b2 9a 3d
       0.08278965 -0.03921107 0.040688373 0.07553553
000370 e9 e3 58 3d 9d e0 89 3e 02 a1 6e be fb 49 ab 3d
       0.052951727 0.2692918 -0.23303607 0.0836372
000380 a7 14 00 be a3 11 31 3e 8f cc 8f 3d da db 71 3d
       -0.12507878 0.17291884 0.07021438 0.059047557
000390 2a a1 c6 3c 2a 27 f1 3d 75 84 c6 3d c9 fc 0e 3e
       0.02424677 0.11775048 0.09693233 0.13963617
0003a0 9b 68 1e bd 2f 2a 5e bd 4e ec 7c 3d 76 85 a1 bd
       -0.03867398 -0.05423945 0.061748795 -0.07886784
0003b0 92 29 c8 bc af e5 ee 3d 1d 91 bd bd 9f 52 94 bd
       -0.024433885 0.116649024 -0.09256194 -0.07242321
0003c0 fa 3c 76 3d f9 28 36 be 98 61 ba 3d f6 1b db 3b
       0.060116746 -0.17789067 0.09100646 0.006686683
0003d0 ee 81 0a bd 39 59 a3 bd 32 96 1a be e8 b3 a3 3d
       -0.033815317 -0.07976002 -0.15096357 0.07993299
0003e0 b6 91 6e 3c 8d b0 5f be ab 9e 9e bc ad 06 05 3e
       0.014561107 -0.21844693 -0.019362768 0.12990828
0003f0 13 7c af 3d 8e 7c 6a bd df 2a df bd c1 4f 19 3e
       0.08568587 -0.05724769 -0.10896849 0.1497183

fc3.bias f4 [10]
000000 96 d1 c7 be 19 46 1e be cd 65 3e 3c c4 08 96 3e
       -0.3902709 -0.15456428 0.011620951 0.29303563
000010 cd ac 9a 3e 20 ed 54 be 8a 17 b7 3e 43 e9 03 be
       0.30209962 -0.20793581 0.35760146 -0.12881951
000020 cd be 87 3d a4 69 55 be
       0.06628189 -0.2084108
