机器学习/机器学习第15组王振宽/model.pth (torch, 342487 bytes, 6 tensors)

conv.weight f4 [10, 1, 2, 2]
0.13323358 -0.26273024 0.66920614 -0.53703797 -0.26828605 -0.32627106 -0.4842956 0.21726933
-0.648786 0.019936718 -0.13587528 0.6549552 -0.03375104 -0.035549887 -0.22599731 -0.17480436
0.6684394 -0.39337945 0.70871425 -0.57001334 1.0169326 0.44267502 0.7564968 0.86002624
0.0072745346 0.50826824 0.69945997 0.5887813 -0.4435406 -0.65003216 0.11424887 0.7097295
0.3782321 -0.13732715 -0.38240838 0.22284906 0.7307133 0.78799075 -0.8598796 -0.47036773
00000000: 626e 083e 9484 86be 1851 2b3f 527b 09bf
00000010: ca5c 89be 000d a7be 98f5 f7be da7b 5e3e
00000020: d716 26bf 5452 a33c e422 0bbe 25ab 273f
00000030: 883e 0abd c29c 11bd d76b 67be eaff 32be
00000040: d81e 2b3f 0869 c9be 4c6e 353f 65ec 11bf
00000050: d92a 823f 4da6 e23e c6a9 413f ae2a 5c3f
00000060: 385f ee3b de1d 023f cf0f 333f 5fba 163f
00000070: c117 e3be 8268 26bf 50fb e93d d5b0 353f
00000080: a3a7 c13e 7d9f 0cbe 08cb c3be 8b32 643e
00000090: 0710 3b3f c3b9 493f 1221 5cbf 0ad4 f0be

conv.bias f4 [10]
-0.0012127646 0.29088396 0.2921624 0.40137732 0.0037105763 -0.08537192 0.3814971 0.43059075
0.20929645 -0.1998859
00000000: a1f5 9eba beee 943e 4f96 953e 5481 cd3e
00000010: 242d 733b 79d7 aebd 9753 c33e 6476 dc3e
00000020: cf51 563e e4ae 4cbe

fc1.weight f4 [50, 1690]
0.018400775 -0.01580715 -0.014101777 -0.012939374 -0.00032194876 -0.01693792 -0.018818898 -0.023626767
0.014374286 -0.025228735 -0.02357682 -0.010461706 -0.015207632 -0.018130906 0.022270497 0.01573636
0.0040287483 0.018379644 0.0006773295 -0.022361178 0.0065665254 -0.016353644 -0.013058928 -0.023515847
0.022355441 0.00085609086 0.02090737 0.020375842 -0.023246508 -0.00048717155 -0.0011785462 0.017670542
-0.0112719145 -0.0072004935 0.011427464 0.010914598 0.014056558 -0.006132947 0.0019181931 -0.023995336
-0.0012120028 -0.0041276026 0.014943445 0.013376947 0.016350817 -0.0010384886 0.005879248 -0.0017135807
-0.013300984 -0.0065507465 -0.014760505 0.0051844153 -0.015201826 0.018156108 -0.0036230509 -0.020706894
-0.015577668 0.0032446755 0.0049028527 -0.0074052825 -0.03528814 -0.01585546 -0.03225988 -0.015948111
0.005654208 0.018424634 -0.02364269 -0.013126129 0.025329977 -0.0022575967 0.02417403 0.0034143946
0.01572147 -0.02826235 -0.0287529 -0.0069125216 -0.018484805 0.020672733 0.009160763 0.020891227
0.020387644 0.021973502 0.026948983 0.020657185 0.0075714523 0.0012751245 0.010909043 0.01418806
-0.0020912637 0.020518962 0.027260529 -0.009525603 0.0073852884 -0.019669205 0.0068125655 0.005773401
-0.01491983 -0.028791517 -0.021479607 -0.0035560317 0.010679389 0.0052825487 0.015872993 0.025645783
-0.0062687458 -0.007920888 -0.009019164 0.028612804 0.015442315 -0.026585246 -0.032853078 0.017547451
-0.009070366 0.010987619 -0.020060323 -0.01056212 -0.022381496 -0.019665413 -0.012338343 0.021815913
0.015055991 0.006088139 -0.0045879497 -0.009584914 -0.0060381726 0.014312265 0.020893076 0.009470514
-0.018196905 0.012290318 0.015079522 0.0045998334 0.01653608 -0.0098563 -0.0035623466 -0.023088222
-0.011196426 0.013210641 -0.013476658 -0.02235588 -0.007971021 0.024551386 0.014809549 0.019071946
0.013934949 0.00038295044 0.010278177 -0.0017214215 0.0056304545 0.013754408 0.0074556307 0.007051311
0.011340404 0.0014620683 0.0062409868 0.0015257442 -0.008193641 -0.023661805 -0.015406974 -0.011692801
-0.004542751 0.0015327759 -0.02870768 0.016782764 -0.008850176 -0.00016084983 -0.0024934034 0.016270397
0.017000966 -0.012586915 0.012626403 0.012601583 -0.01909852 0.009682914 0.022669293 0.021352034
0.027273048 -0.017098354 0.0118479915 -0.0065147895 0.0135737965 0.025000995 0.0018850015 -0.011433149
-0.007545642 0.012697359 0.021467693 -0.01575937 -0.0051799435 0.01762487 -0.0018577295 0.017837932
0.01117063 0.011863915 0.004164235 -0.0017714283 0.02438519 0.023480194 0.013514901 0.013856782
0.020464912 0.0026373637 0.018773077 0.0033687043 0.014204928 0.0012784824 -0.0016567112 -0.005354767
-0.008168006 0.013889891 0.023419477 -0.012536557 0.01597532 -0.01569389 -0.010239836 -0.0001852927
-0.0125592165 -0.013030536 0.01959111 0.01877057 -0.010732579 0.021141026 0.017280474 0.004864725
-0.012751614 -0.01500842 -0.019073151 0.01311908 -0.005949448 -0.024605438 -0.027316047 -0.018651316
0.0006194072 0.018860128 0.023259355 -0.0027375263 0.025873248 0.023239342 -0.01199697 0.009371644
0.022066524 0.012671145 -5.255463e-05 0.005243884 -0.00402853 -0.008453437 0.009410771 -0.0034112814
0.0056726374 -0.0033061374 0.01399694 -0.008636514 0.016943147 0.02663659 0.023189431 -0.011543775
00000000: 39bd 963c ff7d 81bc 240b 67bc abff 53bc
00000010: 3bcb a8b9 65c1 8abc 172a 9abc ec8c c1bc
00000020: 2082 6b3c 7eac cebc 2d24 c1bc 9367 2bbc
00000030: 6f29 79bc 4487 94bc 9e70 b63c 8ae9 803c
00000040: 9703 843b e890 963c d08e 313a ca2e b7bc
00000050: 022c d73b 14f8 85bc 1df5 55bc 4ea4 c0bc
00000060: c222 b73c 496b 603a ef45 ab3c 3deb a63c
00000070: 766f bebc 0f6b ffb9 7379 9aba d0c1 903c
00000080: d6ad 38bc 1ef2 ebbb 423a 3b3c 24d3 323c
00000090: 7a4d 663c e3f6 c8bb e16b fb3a de91 c4bc
000000a0: 11dc 9eba d740 87bb 5ad5 743c fb2a 5b3c
000000b0: 26f2 853c e51d 88ba b5a6 c03b 3a9a e0ba
000000c0: 5fec 59bc a5a7 d6bb 0cd6 71bc 07e2 a93b
000000d0: 1411 79bc 1ebc 943c b570 6dbb 81a1 a9bc
000000e0: 7a39 7fbc 9fa4 543b 1ca8 a03b 03a8 f2bb
000000f0: 4c8a 10bd 4fe3 81bc f022 04bd 9da5 82bc
00000100: ef46 b93b 42ef 963c 51ae c1bc fa0e 57bc
00000110: d080 cf3c 30f4 13bb 9e08 c63c 09c4 5f3b
00000120: 50ca 803c 7286 e7bc 348b ebbc 6f82 e2bb
00000130: 726d 97bc dd59 a93c 0617 163c 1424 ab3c
00000140: fd03 a73c c601 b43c 1dc4 dc3c 4239 a93c
00000150: f219 f83b 1422 a73a d8bb 323c 0975 683c
00000160: 950d 09bb 6217 a83c 7951 df3c 4611 1cbc
00000170: 4a00 f23b 5021 a1bc f13b df3b cc2e bd3b
00000180: 4d72 74bc 30dc ebbc 00f6 afbc 500c 69bb
00000190: 9bf8 2e3c 3b19 ad3b 1408 823c 1b17 d23c
000001a0: 0d6a cdbb 9dc6 01bc 1ec5 13bc 6665 ea3c
000001b0: c301 7d3c 4dc9 d9bc f390 06bd acbf 8f3c
000001c0: df9b 14bc 6a05 343c 8c55 a4bc be0c 2dbc
000001d0: 6659 b7bc 5c19 a1bc c326 4abc 49b7 b23c
000001e0: 67ad 763c 037f c73b 8356 96bb 0b0a 1dbc
000001f0: dddb c5bb fe7d 6a3c f527 ab3c 372a 1b3c
00000200: ad11 95bc 545d 493c 1910 773c 33ba 963b
00000210: ac76 873c 527c 21bc 4276 69bb 8323 bdbc
00000220: 3771 37bc 7271 583c 33cd 5cbc ae23 b7bc
00000230: e398 02bc fd1f c93c c0a3 723c c53c 9c3c
00000240: 6a4f 643c bdc6 c839 cd65 283c 52a1 e1ba
00000250: ad7f b83b 2b5a 613c 5d4e f43b af0e e73b
00000260: 1acd 393c dfa2 bf3a 3181 cc3b 7bfb c73a
00000270: 9f3e 06bc 67d6 c1bc 886d 7cbc 2993 3fbc
00000280: 5bdb 94bb 6de7 c83a 5e2c ebbc 027c 893c
00000290: 5400 11bc cca9 28b9 5e68 23bb 7f49 853c
000002a0: 9c45 8b3c 5939 4ebc f9de 4e3c df76 4e3c
000002b0: 8074 9cbc 16a5 1e3c f4b4 b93c 76ea ae3c
000002c0: ba6b df3c d911 8cbc 141e 423c 047a d5bb
000002d0: a164 5e3c e3ce cc3c 2812 f73a 1a52 3bbc
000002e0: 6f41 f7bb 9508 503c 04dd af3c cb19 81bc
000002f0: 84bc a9bb 0862 903c 0f7f f3ba db20 923c
00000300: 0505 373c de60 423c 2374 883b 452f e8ba
00000310: 73c3 c73c 8959 c03c 9a6d 5d3c 8e07 633c
00000320: 08a6 a73c 9fd7 2c3b ffc9 993c 7bc5 5c3b
00000330: c9bb 683c c092 a73a 0126 d9ba 0b77 afbb
00000340: 1ad3 05bc 6d92 633c 34da bf3c 2266 4dbc
00000350: adde 823c 7990 80bc fcc4 27bc 214b 42b9
00000360: 2cc5 4dbc 077e 55bc 897d a03c bdc4 993c
00000370: b3d7 2fbc f22f ad3c c88f 8d3c 4568 9f3b
00000380: 25ec 50bc e0e5 75bc 4c3f 9cbc 69f1 563c
00000390: 96f3 c2bb 5891 c9bc e7c5 dfbc a5ca 98bc
000003a0: b75f 223a 8e80 9a3c 678a be3c 1268 33bb
000003b0: 22f4 d33c 6f60 be3c f08e 44bc 868b 193c
000003c0: dbc4 b43c a29a 4f3c 1b6e 5cb8 e3d4 ab3b
000003d0: c201 84bb 4980 0abc a22f 1a3c ce8f 5fbb
000003e0: 88e1 b93b c8ab 58bb 6c53 653c 2a80 0dbc
000003f0: 5bcc 8a3c fa34 da3c c3f7 bd3c 1a22 3dbc

fc1.bias f4 [50]
0.00920927 0.00037839555 -0.0069174585 0.0033796178 -0.007307566 -0.01290854 -0.017945956 -0.024112046
0.009238299 -0.021953367 0.0069104363 -0.006994324 0.0013587736 -0.010837554 0.0036049213 0.00972107
-0.01929428 -0.0111327125 -0.005583167 -0.019125333 -0.0033806004 0.009442756 -0.018750133 -0.008909407
-0.012939998 -0.012871082 -0.00019167924 -0.006993337 0.021518257 0.0147711 0.000291601 -0.014531449
0.0034124455 0.002473769 -0.02278983 0.010960972 -0.019450147 -0.03178725 0.003149704 -0.032274734
0.018740749 -0.0014066038 0.0061723236 0.017849196 0.015134606 -0.02069881 -0.014490555 0.0019677475
0.020622801 -0.0079273265
00000000: 7ae2 163c 6463 c639 d9ab e2bb 947c 5d3b
00000010: 4e74 efbb 577e 53bc 6603 93bc a086 c5bc
00000020: 3c5c 173c 8cd7 b3bc f170 e23b a430 e5bb
00000030: e018 b23a ff8f 31bc 8b40 6c3b 1f45 1f3c
00000040: 0a0f 9ebc fb65 36bc 00f3 b6bb bbac 9cbc
00000050: 108d 5dbb cab5 1a3c e199 99bc c3f8 11bc
00000060: 4902 54bc 3be1 52bc 81fd 48b9 5d28 e5bb
00000070: 0e47 b03c 7c02 723c 06e2 9839 5115 6ebc
00000080: 56a3 5f3b f51e 223b bdb1 babc a695 333c
00000090: ea55 9fbc 5933 02bd 446b 4e3b 8332 04bd
000000a0: 3386 993c cb5d b8ba 3441 ca3b 7a38 923c
000000b0: 23f7 773c 8d90 a9bc cb69 6dbc 53f5 003b
000000c0: 26f1 a83c 9ee1 01bc

fc2.weight f4 [10, 50]
0.2692536 0.19877048 -0.18904518 -0.12977472 -0.10052925 -0.16805118 0.12636173 0.04637189
-0.14053577 0.22545217 -0.2060952 -0.10914159 0.10441011 -0.22768243 0.1707945 -0.2371489
-0.21517906 -0.17224151 -0.021298708 -0.1453647 -0.09991855 -0.13980769 0.1019267 -0.24087687
-0.19716738 -0.06939213 -0.008485343 -0.257225 -0.058195088 -0.11061392 0.053388998 0.2214082
0.16048904 0.23668961 -0.12525271 -0.10749466 0.17305137 -0.2833945 -0.105330735 0.1498133
-0.0128694875 0.29236555 -0.10380711 0.041177392 0.04239693 0.15298977 0.02038788 0.18535939
0.19749585 0.20367445 -0.045417223 -0.19467124 0.19784296 0.25836366 0.16051032 -0.24054292
-0.22437225 -0.16790223 0.19938107 -0.09849427 -0.1861339 -0.07519088 0.14274792 0.14774069
-0.14461656 0.17557608 -0.19570993 0.21305822 0.062022038 -0.12957722 -0.07471937 0.09370396
0.10156877 0.142937 0.18071114 -0.2441549 -0.0827772 0.13144071 -0.11825956 0.19737948
0.2030112 -0.11309348 -0.19903186 -0.10077512 -0.13472807 -0.08842731 -0.16725954 0.1583467
0.06198255 -0.26764655 0.15804216 0.06286593 -0.2105358 0.19476792 -0.03496295 -0.10787619
-0.17277648 0.20737754 -0.23423837 -0.106499635 -0.051893014 -0.0142389685 0.19180517 -0.11250625
0.15340972 -0.0156092085 0.11105557 -0.1398363 -0.25475365 -0.14258829 0.16821626 -0.1381541
0.1971565 0.16957968 0.047888402 -0.16075264 -0.2323716 0.1953581 -0.12526318 -0.11795705
-0.18239169 -0.012541991 -0.01969247 0.15098056 -0.20114416 0.13844755 -0.045303084 0.07447363
-0.1295637 0.18547569 -0.1727127 0.23815005 -0.06919231 -0.14736475 -0.15896893 -0.058263376
-0.020913944 0.06979924 0.08301791 0.13015595 0.051606968 -0.04166732 0.10631422 -0.014901073
0.19605576 0.17983916 0.19076371 -0.09518941 0.19005078 0.21463393 -0.077481054 -0.034870498
0.14474495 -0.057185825 -0.03883478 0.20137483 0.114917345 0.03927456 0.19624573 -0.14602473
-0.0690271 -0.0784523 0.1674247 0.15661137 0.08035439 -0.17372528 0.18368241 0.21480156
-0.042082544 0.09627364 0.18233763 0.1864651 0.1036369 -0.059381787 -0.096288204 -0.068113394
-0.035428416 0.185187 -0.0497465 -0.06345599 0.07678606 -0.0036274022 -0.21208908 -0.07715913
-0.17363551 0.21328561 0.026702806 0.12580208 0.078899704 0.12181205 -0.21394917 -0.061308894
-0.055305496 0.1512425 -0.046228837 0.16953436 -0.14477585 -0.12139412 -0.094126366 0.20204353
-0.16158895 -0.041889947 -0.23797297 0.268658 -0.20146012 -0.18597102 -0.27099887 0.12254955
-0.14103067 0.06194429 -0.22458631 0.23885944 -0.21146272 -0.09283801 0.16139542 0.17957194
0.15183875 -0.1473638 0.20078775 0.12532917 0.20770104 -0.2707206 -0.0059515904 -0.008738951
-0.116918236 0.18908721 0.24990502 0.024093619 -0.1551677 0.22052859 -0.21058121 -0.17926635
0.16034313 -0.113470346 0.17955543 0.024893275 -0.06281532 -0.016021933 -0.006113582 -0.19092566
-0.16701436 0.08095772 0.22411133 0.12398653 -0.20441525 -0.11659652 0.17439009 -0.1365321
0.1873894 -0.17862152 0.22248764 0.15112382 -0.03128563 -0.18985131 -0.20851302 0.16785206
00000000: 9cdb 893e 7d8a 4b3e 0f95 41be aae3 04be
00000010: 48e2 cdbd 9c15 2cbe f864 013e 73f0 3d3d
00000020: 9ce8 0fbe efdc 663e 9f0a 53be a085 dfbd
00000030: f8d4 d53d 9525 69be c1e4 2e3e 29d7 72be
00000040: e657 5cbe 1460 30be a17a aebc 7cda 14be
00000050: 19a2 ccbd bf29 0fbe f2be d03d 6da8 76be
00000060: 3fe6 49be 761d 8ebd 1c06 0bbc ffb2 83be
00000070: f95d 6ebd 8d89 e2bd 6cae 5a3d d5b8 623e
00000080: 3d57 243e c35e 723e 3f42 00be 2926 dcbd
00000090: 6134 313e 1519 91be a4b7 d7bd a868 193e
000000a0: 8bda 52bc f0b0 953e d298 d4bd a0a9 283d
000000b0: 67a8 2d3d 5aa9 1c3e 7c04 a73c dace 3d3e
000000c0: 5a3c 4a3e 0990 503e 6907 3abd e657 47be
000000d0: 5897 4a3e 3e48 843e d15c 243e e250 76be
000000e0: d7c1 65be 90ee 2bbe 8d2a 4c3e 5db7 c9bd
000000f0: e399 3ebe adfd 99bd 832c 123e 5649 173e
00000100: 5d16 14be 37ca 333e 2f68 48be ef2b 5a3e
00000110: d20a 7e3d e4af 04be 7806 99bd dde7 bf3d
00000120: 4a03 d03d 145e 123e 570c 393e be03 7abe
00000130: 1887 a9bd 6598 063e 1132 f2bd d91d 4a3e
00000140: 2be2 4f3e 8e9d e7bd 02cf 4bbe 3063 cebd
00000150: 28f6 09be 6119 b5bd 1646 2bbe a325 223e
00000160: 6ae1 7d3d f808 89be ced5 213e dabf 803d
00000170: b296 57be 3e71 473e 4f35 0fbd 31ee dcbd
00000180: 51ec 30be c75a 543e 2fdc 6fbe 7b1c dabd
00000190: c58d 54bd 904a 69bc 9368 443e ad69 e6bd
000001a0: 7017 1d3e c4bd 7fbc 1a71 e33d 3f31 0fbe
000001b0: 126f 82be aa02 12be e240 2c3e 4578 0dbe
000001c0: 65e3 493e 4ca6 2d3e a126 443d 579c 24be
000001d0: d2f2 6dbe f40b 483e fe44 00be 7793 f1bd
000001e0: e3c4 3abe ec7c 4dbc 1a52 a1bc a69a 1a3e
000001f0: bcf8 4dbe 32c5 0d3e ba8f 39bd a185 983d
00000200: 59ac 04be 57ed 3d3e 99db 30be 9bdd 733e
00000210: b3b4 8dbd c9e6 16be c0c8 22be 94a5 6ebd
00000220: b853 abbc e7f2 8e3d 4b05 aa3d 9a47 053e
00000230: d461 533d 5aab 2abd 45bb d93d a123 74bc
00000240: d7c2 483e c227 383e 9057 433e aaf2 c2bd
00000250: ac9c 423e ffc8 5b3e 63ae 9ebd 5ed4 0ebd
00000260: 0538 143e af3b 6abd 3811 1fbd 3435 4e3e
00000270: c959 eb3d 5cde 203d a4f4 483e 8287 15be
00000280: 155e 8dbd 99ab a0bd 6171 2b3e bb5e 203e
00000290: d890 a43d 0ae5 31be 3e17 3c3e f1f4 5b3e
000002a0: bf5e 2cbd 1d2b c53d b7b6 3a3e b5f0 3e3e
000002b0: 953f d43d 513a 73bd c032 c5bd 097f 8bbd
000002c0: 631d 11bd a9a1 3d3e fcc2 4bbd 37f5 81bd
000002d0: 0342 9d3d b6b9 6dbb e12d 59be 9b05 9ebd
000002e0: 82cd 31be 8b67 5a3e d8bf da3c 43d2 003e
000002f0: 2b96 a13d 9978 f93d 7e15 5bbe 091f 7bbd
00000300: 0488 62bd 50df 1a3e 735a 3dbd 6a9a 2d3e
00000310: 1f40 14be 7b9d f8bd 53c5 c0bd 80e4 4e3e
00000320: 9377 25be cb94 2bbd 30af 73be 8b8d 893e
00000330: 904b 4ebe 306f 3ebe 5dc0 8abe 42fb fa3d
00000340: 586a 10be 4cb9 7d3d f4f9 65be 9297 743e
00000350: af89 58be db21 bebd d744 253e b5e1 373e
00000360: 9e7b 1b3e 89e6 16be 4e9b 4d3e 4a56 003e
00000370: 95af 543e e49b 8abe 8f05 c3bb d12d 0fbc
00000380: d472 efbd 14a0 413e 1ae7 7f3e fb5f c53c
00000390: 48e4 1ebe 3fd2 613e 9aa2 57be 9991 37be
000003a0: fd30 243e 2463 e8bd 61dd 373e fbec cb3c
000003b0: 52a5 80bd 6e40 83bc 7154 c8bb 0482 43be
000003c0: d005 2bbe 29cd a53d 717d 653e a6ec fd3d
000003d0: 3b52 51be 28ca eebd 5193 323e 12cf 0bbe
000003e0: 02e3 3f3e 8fe8 36be cdd3 633e 34c0 1a3e
000003f0: 5c25 00bd 6268 42be 7084 55be 69e1 2b3e

fc2.bias f4 [10]
0.044897 0.1427262 0.0453342 0.035850447 0.1654867 0.0563744 -0.0089195175 -0.17495027
-0.051619407 -0.038182322
00000000: ebe5 373d d126 123e 5bb0 393d ebd7 123d
00000010: 5875 293e d8e8 663d 2b23 12bc 2a26 33be
00000020: df6e 53bd 1165 1cbd
